…
2020-07-24 09:39:07 | INFO | fairseq.tasks.translation | [en] dictionary: 6632 types
2020-07-24 09:39:07 | INFO | fairseq.data.data_utils | loaded 7283 examples from: data-bin/iwslt14.tokenized.de-en/valid.de-en.de
2020-07-24 09:39:07 | INFO | fairseq.data.data_utils | loaded 7283 examples from: data-bin/iwslt14.tokenized.de-en/valid.de-en.en
2020-07-24 09:39:07 | INFO | fairseq.tasks.translation | data-bin/iwslt14.tokenized.de-en valid de-en 7283 examples
2020-07-24 09:39:07 | INFO | fairseq_cli.train | FConvModel(
  (encoder): FConvEncoder(
    (dropout_module): FairseqDropout()
    (embed_tokens): Embedding(8848, 256, padding_idx=1)
    (embed_positions): LearnedPositionalEmbedding(1024, 256, padding_idx=1)
    (fc1): Linear(in_features=256, out_features=256, bias=True)
    (projections): ModuleList(
      (0): None
      (1): None
      (2): None
      (3): None
    )
    (convolutions): ModuleList(
      (0): ConvTBC(256, 512, kernel_size=(3,), padding=(1,))
      (1): ConvTBC(256, 512, kernel_size=(3,), padding=(1,))
      (2): ConvTBC(256, 512, kernel_size=(3,), padding=(1,))
      (3): ConvTBC(256, 512, kernel_size=(3,), padding=(1,))
    )
    (fc2): Linear(in_features=256, out_features=256, bias=True)
  )
  (decoder): FConvDecoder(
    (dropout_module): FairseqDropout()
    (embed_tokens): Embedding(6632, 256, padding_idx=1)
    (embed_positions): LearnedPositionalEmbedding(1024, 256, padding_idx=1)
    (fc1): Linear(in_features=256, out_features=256, bias=True)
    (projections): ModuleList(
      (0): None
      (1): None
      (2): None
    )
    (convolutions): ModuleList(
      (0): LinearizedConvolution(256, 512, kernel_size=(3,), padding=(2,))
      (1): LinearizedConvolution(256, 512, kernel_size=(3,), padding=(2,))
      (2): LinearizedConvolution(256, 512, kernel_size=(3,), padding=(2,))
    )
    (attention): ModuleList(
      (0): AttentionLayer(
        (in_projection): Linear(in_features=256, out_features=256, bias=True)
        (out_projection): Linear(in_features=256, out_features=256, bias=True)
      )
      (1): AttentionLayer(
        (in_projection): Linear(in_features=256, out_features=256, bias=True)
        (out_projection): Linear(in_features=256, out_features=256, bias=True)
      )
      (2): AttentionLayer(
        (in_projection): Linear(in_features=256, out_features=256, bias=True)
        (out_projection): Linear(in_features=256, out_features=256, bias=True)
      )
    )
    (fc2): Linear(in_features=256, out_features=256, bias=True)
    (fc3): Linear(in_features=256, out_features=6632, bias=True)
  )
)
2020-07-24 09:39:07 | INFO | fairseq_cli.train | model fconv_iwslt_de_en, criterion CrossEntropyCriterion
2020-07-24 09:39:07 | INFO | fairseq_cli.train | num. model params: 9618384 (num. trained: 9618384)
2020-07-24 09:39:09 | INFO | fairseq.utils | ***********************CUDA enviroments for all 1 workers***********************
2020-07-24 09:39:09 | INFO | fairseq.utils | rank   0: capabilities =  7.5  ; total memory = 7.795 GB ; name = GeForce RTX 2070                        
…
